…
|             noise_proj.bias              |    512     |
|     noise_proj.style_block.0.weight      |     6      |
|      noise_proj.style_block.0.bias       |     6      |
+------------------------------------------+------------+
Total Trainable Params: 6989426



==========================================================================================
Layer (type:depth-idx)                   Output Shape              Param #
==========================================================================================
Generator                                --                        --
├─ConvStyled3d: 1-1                      [1, 512, 22, 22, 22]      --
│    └─Sequential: 2-1                   [1, 6]                    --
│    │    └─Linear: 3-1                  [1, 6]                    12
├─LeakyReLUStyled: 1-2                   [1, 512, 22, 22, 22]      --
├─ConvStyled3d: 1-3                      [1, 512, 22, 22, 22]      --
│    └─Sequential: 2-2                   [1, 6]                    --
│    │    └─Linear: 3-2                  [1, 6]                    12
├─AddNoise: 1-4                          [1, 512, 22, 22, 22]      512
├─HBlock: 1-5                            [1, 256, 38, 38, 38]      --
│    └─Resampler: 2-3                    [1, 512, 42, 42, 42]      --
│    └─ConvStyled3d: 2-4                 [1, 256, 40, 40, 40]      --
│    │    └─Sequential: 3-3              [1, 512]                  1,024
│    └─LeakyReLUStyled: 2-5              [1, 256, 40, 40, 40]      --
│    └─ConvStyled3d: 2-6                 [1, 256, 40, 40, 40]      --
│    │    └─Sequential: 3-4              [1, 6]                    12
│    └─AddNoise: 2-7                     [1, 256, 40, 40, 40]      256
│    └─ConvStyled3d: 2-8                 [1, 256, 38, 38, 38]      --
│    │    └─Sequential: 3-5              [1, 256]                  512
│    └─LeakyReLUStyled: 2-9              [1, 256, 38, 38, 38]      --
│    └─ConvStyled3d: 2-10                [1, 256, 38, 38, 38]      --
│    │    └─Sequential: 3-6              [1, 6]                    12
│    └─AddNoise: 2-11                    [1, 256, 38, 38, 38]      256
│    └─Resampler: 2-12                   [1, 6, 42, 42, 42]        --
│    └─ConvStyled3d: 2-13                [1, 6, 38, 38, 38]        --
│    │    └─Sequential: 3-7              [1, 256]                  512
│    └─LeakyReLUStyled: 2-14             [1, 6, 38, 38, 38]        --
├─HBlock: 1-6                            [1, 128, 70, 70, 70]      --
│    └─Resampler: 2-15                   [1, 256, 74, 74, 74]      --
│    └─ConvStyled3d: 2-16                [1, 128, 72, 72, 72]      --
│    │    └─Sequential: 3-8              [1, 256]                  512
│    └─LeakyReLUStyled: 2-17             [1, 128, 72, 72, 72]      --
│    └─ConvStyled3d: 2-18                [1, 128, 72, 72, 72]      --
│    │    └─Sequential: 3-9              [1, 6]                    12
│    └─AddNoise: 2-19                    [1, 128, 72, 72, 72]      128
│    └─ConvStyled3d: 2-20                [1, 128, 70, 70, 70]      --
│    │    └─Sequential: 3-10             [1, 128]                  256
│    └─LeakyReLUStyled: 2-21             [1, 128, 70, 70, 70]      --
│    └─ConvStyled3d: 2-22                [1, 128, 70, 70, 70]      --
│    │    └─Sequential: 3-11             [1, 6]                    12
│    └─AddNoise: 2-23                    [1, 128, 70, 70, 70]      128
│    └─Resampler: 2-24                   [1, 6, 74, 74, 74]        --
│    └─ConvStyled3d: 2-25                [1, 6, 70, 70, 70]        --
│    │    └─Sequential: 3-12             [1, 128]                  256
│    └─LeakyReLUStyled: 2-26             [1, 6, 70, 70, 70]        --
├─HBlock: 1-7                            [1, 64, 134, 134, 134]    --
│    └─Resampler: 2-27                   [1, 128, 138, 138, 138]   --
│    └─ConvStyled3d: 2-28                [1, 64, 136, 136, 136]    --
│    │    └─Sequential: 3-13             [1, 128]                  256
│    └─LeakyReLUStyled: 2-29             [1, 64, 136, 136, 136]    --
│    └─ConvStyled3d: 2-30                [1, 64, 136, 136, 136]    --
│    │    └─Sequential: 3-14             [1, 6]                    12
│    └─AddNoise: 2-31                    [1, 64, 136, 136, 136]    64
│    └─ConvStyled3d: 2-32                [1, 64, 134, 134, 134]    --
│    │    └─Sequential: 3-15             [1, 64]                   128
│    └─LeakyReLUStyled: 2-33             [1, 64, 134, 134, 134]    --
│    └─ConvStyled3d: 2-34                [1, 64, 134, 134, 134]    --
│    │    └─Sequential: 3-16             [1, 6]                    12
│    └─AddNoise: 2-35                    [1, 64, 134, 134, 134]    64
│    └─Resampler: 2-36                   [1, 6, 138, 138, 138]     --
│    └─ConvStyled3d: 2-37                [1, 6, 134, 134, 134]     --
│    │    └─Sequential: 3-17             [1, 64]                   128
│    └─LeakyReLUStyled: 2-38             [1, 6, 134, 134, 134]     --
==========================================================================================
Total params: 5,088
Trainable params: 5,088
Non-trainable params: 0
Total mult-adds (M): 0.00
==========================================================================================
Input size (MB): 138.67
Forward/backward pass size (MB): 3540.36
Params size (MB): 0.02
Estimated Total Size (MB): 3679.05
…
